# Ultralytics YOLO 🚀, AGPL-3.0 license
# YOLO11 object detection model with P3-P5 outputs. For Usage examples see https://docs.ultralytics.com/tasks/detect

# Parameters
nc: 80 # number of classes
scales: # model compound scaling constants, i.e. 'model=yolo11n.yaml' will call yolo11.yaml with scale 'n'
  # [depth, width, max_channels]
  n: [0.50, 0.25, 1024] # summary: 319 layers, 2624080 parameters, 2624064 gradients, 6.6 GFLOPs
  s: [0.50, 0.50, 1024] # summary: 319 layers, 9458752 parameters, 9458736 gradients, 21.7 GFLOPs
  m: [0.50, 1.00, 512] # summary: 409 layers, 20114688 parameters, 20114672 gradients, 68.5 GFLOPs
  l: [1.00, 1.00, 512] # summary: 631 layers, 25372160 parameters, 25372144 gradients, 87.6 GFLOPs
  x: [1.00, 1.50, 512] # summary: 631 layers, 56966176 parameters, 56966160 gradients, 196.0 GFLOPs

# YOLO11n backbone
backbone:
#Model 1 ----------------------------------------
  - [-1, 1, Input, []]

  # [from, repeats, module, args]
  - [0, 1, Conv, [64, 3, 2]] # 0-P1/2
  - [-1, 1, Conv, [128, 3, 2]] # 1-P2/4
  - [-1, 2, C3k2, [256, False, 0.25, 1, True, False]]
  - [-1, 1, Conv, [256, 3, 2]] # 3-P3/8
  - [-1, 2, C3k2, [512, False, 0.25, 1, True, False]]
  - [-1, 1, Conv, [512, 3, 2]] # 5-P4/16
  - [-1, 2, C3k2, [512, True, 0.5, 1, True, False]]
  - [-1, 1, Conv, [1024, 3, 2]] # 7-P5/32
  - [-1, 2, C3k2, [1024, True, 0.5, 1, True, False]]
  - [-1, 1, SPPF, [1024, 5]] # 9
  - [-1, 2, C2PSA, [1024]] # 10

#Model 2 ------------------------------------------
  - [0, 1, ResNetLayer, [3, 64, 1, True, 1]] # 0
  - [-1, 1, ResNetLayer, [64, 64, 1, False, 3]] # 1
  - [-1, 1, ResNetLayer, [256, 128, 2, False, 4]] # 2 #14
  - [-1, 1, ResNetLayer, [512, 256, 2, False, 6]] # 3 #15
  - [-1, 1, ResNetLayer, [1024, 512, 2, False, 3]] # 4

# YOLO11n head
head:
#Model 1 ------------------------------------------
  - [11, 1, nn.Upsample, [None, 2, "nearest"]]
  - [[-1, 7], 1, Concat, [1]] # cat backbone P4
  - [-1, 2, C3k2, [512, False, 0.5, 1, True, False]] # 13
  - [-1, 1, nn.Upsample, [None, 2, "nearest"]]
  - [[-1, 5], 1, Concat, [1]] # cat backbone P3
  - [-1, 2, C3k2, [256, False, 0.5, 1, True, False]] # 16 (P3/8-small)  #21
  - [-1, 1, Conv, [256, 3, 2]]
  - [[-1, 19], 1, Concat, [1]] # cat head P4
  - [-1, 2, C3k2, [512, False, 0.5, 1, True, False]] # 19 (P4/16-medium) #24
  - [-1, 1, Conv, [512, 3, 2]]
  - [[-1, 11], 1, Concat, [1]] # cat head P5
  - [-1, 2, C3k2, [1024, True, 0.5, 1, True, False]] # 22 (P5/32-large) #27
  
#Model 2 -----------------------------------------
  - [16, 1, Conv, [256, 1, 1, None, 1, 1, False]] # 5
  - [-1, 1, AIFI, [1024, 8]]
  - [-1, 1, Conv, [256, 1, 1]] # 7 #31
  - [-1, 1, nn.Upsample, [None, 2, "nearest"]]
  - [15, 1, Conv, [256, 1, 1, None, 1, 1, False]] # 9
  - [[-2, -1], 1, Concat, [1]]
  - [-1, 3, RepC3, [256]] # 11
  - [-1, 1, Conv, [256, 1, 1]] # 12
  - [-1, 1, nn.Upsample, [None, 2, "nearest"]]
  - [14, 1, Conv, [256, 1, 1, None, 1, 1, False]] # 14
  - [[-2, -1], 1, Concat, [1]] # cat backbone P4
  - [-1, 3, RepC3, [256]] # X3 (16), fpn_blocks.1 #39
  - [-1, 1, Conv, [256, 3, 2]] # 17, downsample_convs.0
  - [[-1, 36], 1, Concat, [1]] # cat Y4
  - [-1, 3, RepC3, [256]] # F4 (19), pan_blocks.0 #42
  - [-1, 1, Conv, [256, 3, 2]] # 20, downsample_convs.1
  - [[-1, 31], 1, Concat, [1]] # cat Y5
  - [-1, 3, RepC3, [256]] # F5 (22), pan_blocks.1 #45

  # - [[16, 19, 22], 1, Detect, [nc]] # Detect(P3, P4, P5)
  - [[22, 40], 1, Concat, [1]]
  - [[25, 43], 1, Concat, [1]]
  - [[28, 46], 1, Concat, [1]]

  - [47, 2, C3k2, [256, False]]
  - [-1, 1, CBAM, [256, 16]]
  - [48, 2, C3k2, [512, False]]
  - [-1, 1, CBAM, [512, 16]]
  - [49, 2, C3k2, [1024, False]]
  - [-1, 1, CBAM, [1024, 16]]

  - [[51, 53, 55], 1, Detect, [nc]] # Detect(P3, P4, P5)
